…
2021-01-21 15:17:04.167532: I tensorflow/compiler/xla/service/service.cc:168] XLA service 0x559d8b26e070 initialized for platform Host (this does not guarantee that XLA will be used). Devices:
2021-01-21 15:17:04.167548: I tensorflow/compiler/xla/service/service.cc:176]   StreamExecutor device (0): Host, Default Version
I solemnly swear that I am up to no good.
x_train shape: (60000, 28, 28, 1)
60000 train samples
10000 test samples
Model: "sequential"
_________________________________________________________________
Layer (type)                 Output Shape              Param #   
=================================================================
conv2d (Conv2D)              (None, 26, 26, 32)        320       
_________________________________________________________________
max_pooling2d (MaxPooling2D) (None, 13, 13, 32)        0         
_________________________________________________________________
conv2d_1 (Conv2D)            (None, 11, 11, 64)        18496     
_________________________________________________________________
max_pooling2d_1 (MaxPooling2 (None, 5, 5, 64)          0         
_________________________________________________________________
flatten (Flatten)            (None, 1600)              0         
_________________________________________________________________
dropout (Dropout)            (None, 1600)              0         
_________________________________________________________________
dense (Dense)                (None, 10)                16010     
=================================================================
Total params: 34,826
Trainable params: 34,826
Non-trainable params: 0
_________________________________________________________________
None
Epoch 1/15
  1/422 [..............................] - ETA: 0s - loss: 2.3269 - accuracy: 0.0547  2/42
…
