backend: tensorflow
class_name: Sequential
config:
  layers:
  - class_name: InputLayer
    config:
      batch_input_shape: !!python/tuple
      - null
      - 128
      - 128
      - 1
      dtype: float32
      name: input_1
      ragged: false
      sparse: false
  - class_name: Conv2D
    config:
      activation: relu
      activity_regularizer: null
      bias_constraint: null
      bias_initializer:
        class_name: Zeros
        config: {}
      bias_regularizer: null
      data_format: channels_last
      dilation_rate: &id001 !!python/tuple
      - 1
      - 1
      dtype: float32
      filters: 16
      groups: 1
      kernel_constraint: null
      kernel_initializer:
        class_name: GlorotUniform
        config:
          seed: null
      kernel_regularizer: null
      kernel_size: &id002 !!python/tuple
      - 3
      - 3
      name: conv2d
      padding: valid
      strides: *id001
      trainable: true
      use_bias: true
  - class_name: MaxPooling2D
    config:
      data_format: channels_last
      dtype: float32
      name: max_pooling2d
      padding: valid
      pool_size: &id003 !!python/tuple
      - 2
      - 2
      strides: !!python/tuple
      - 2
      - 2
      trainable: true
  - class_name: Conv2D
    config:
      activation: relu
      activity_regularizer: null
      bias_constraint: null
      bias_initializer:
        class_name: Zeros
        config: {}
      bias_regularizer: null
      data_format: channels_last
      dilation_rate: *id001
      dtype: float32
      filters: 32
      groups: 1
      kernel_constraint: null
      kernel_initializer:
        class_name: GlorotUniform
        config:
          seed: null
      kernel_regularizer: null
      kernel_size: *id002
      name: conv2d_1
      padding: valid
      strides: *id001
      trainable: true
      use_bias: true
  - class_name: MaxPooling2D
    config:
      data_format: channels_last
      dtype: float32
      name: max_pooling2d_1
      padding: valid
      pool_size: *id003
      strides: !!python/tuple
      - 2
      - 2
      trainable: true
  - class_name: Conv2D
    config:
      activation: relu
      activity_regularizer: null
      bias_constraint: null
      bias_initializer:
        class_name: Zeros
        config: {}
      bias_regularizer: null
      data_format: channels_last
      dilation_rate: *id001
      dtype: float32
      filters: 64
      groups: 1
      kernel_constraint: null
      kernel_initializer:
        class_name: GlorotUniform
        config:
          seed: null
      kernel_regularizer: null
      kernel_size: *id002
      name: conv2d_2
      padding: valid
      strides: *id001
      trainable: true
      use_bias: true
  - class_name: MaxPooling2D
    config:
      data_format: channels_last
      dtype: float32
      name: max_pooling2d_2
      padding: valid
      pool_size: *id003
      strides: !!python/tuple
      - 2
      - 2
      trainable: true
  - class_name: GlobalAveragePooling2D
    config:
      data_format: channels_last
      dtype: float32
      name: global_average_pooling2d
      trainable: true
  - class_name: Dropout
    config:
      dtype: float32
      name: dropout
      noise_shape: null
      rate: 0.1
      seed: null
      trainable: true
  - class_name: Dense
    config:
      activation: linear
      activity_regularizer: null
      bias_constraint: null
      bias_initializer:
        class_name: Zeros
        config: {}
      bias_regularizer: null
      dtype: float32
      kernel_constraint: null
      kernel_initializer:
        class_name: GlorotUniform
        config:
          seed: null
      kernel_regularizer: null
      name: dense
      trainable: true
      units: 200
      use_bias: true
  - class_name: Dropout
    config:
      dtype: float32
      name: dropout_1
      noise_shape: null
      rate: 0.1
      seed: null
      trainable: true
  - class_name: Dense
    config:
      activation: linear
      activity_regularizer: null
      bias_constraint: null
      bias_initializer:
        class_name: Zeros
        config: {}
      bias_regularizer: null
      dtype: float32
      kernel_constraint: null
      kernel_initializer:
        class_name: GlorotUniform
        config:
          seed: null
      kernel_regularizer: null
      name: dense_1
      trainable: true
      units: 100
      use_bias: true
  - class_name: Dense
    config:
      activation: linear
      activity_regularizer: null
      bias_constraint: null
      bias_initializer:
        class_name: Zeros
        config: {}
      bias_regularizer: null
      dtype: float32
      kernel_constraint: null
      kernel_initializer:
        class_name: GlorotUniform
        config:
          seed: null
      kernel_regularizer: null
      name: dense_2
      trainable: true
      units: 20
      use_bias: true
  - class_name: Dense
    config:
      activation: linear
      activity_regularizer: null
      bias_constraint: null
      bias_initializer:
        class_name: Zeros
        config: {}
      bias_regularizer: null
      dtype: float32
      kernel_constraint: null
      kernel_initializer:
        class_name: GlorotUniform
        config:
          seed: null
      kernel_regularizer: null
      name: dense_3
      trainable: true
      units: 3
      use_bias: true
  name: sequential
keras_version: 2.4.0
